mnist_trained/conv2d_weights.npy (npy, 1280 bytes, 1 tensors)

array f4 [3, 3, 1, 32]
000000 d1 b7 81 3d bf fb f8 bd a2 93 e1 3d 9b bb bf bc
       0.06333888 -0.12157392 0.11014487 -0.023404887
000010 90 2c d1 be cf cb ce be 99 22 3e 3e ad da a6 3d
       -0.4085431 -0.4038987 0.18567885 0.08147178
000020 5e 4b 69 be 2b cc 8c 3d 8e 48 e3 bd d5 55 32 bc
       -0.22782657 0.068748794 -0.11097823 -0.010884722
000030 84 3a 23 3e 9c 5f f2 be b8 49 05 be 73 df 45 3e
       0.1594029 -0.4733857 -0.13016403 0.1932352
000040 33 73 99 be 6c ae e6 3d b7 96 0c be 1a ae a8 bd
       -0.29970703 0.11263737 -0.13729368 -0.08236332
000050 b4 b8 be be b4 ec df 3d 03 46 ff 3d d5 4b 66 be
       -0.37250292 0.109338194 0.124645256 -0.22489865
000060 5c cf d9 3d 12 cc 2a 3d f8 fe c7 3d 1c fb 03 3d
       0.10635254 0.041698523 0.09765428 0.0322219
000070 ad 28 47 be 87 64 04 bc c5 f2 ea 3d 99 5e 0b 3e
       -0.1944911 -0.008080608 0.11472086 0.13610305
000080 f0 e7 95 3e ed da bb 3d 67 2e 99 3d b5 bd 5f 3e
       0.29278517 0.09172616 0.07479554 0.21849711
000090 aa 68 27 bf 0e 9f 2b be 5d c4 bf bd 2f fc a7 bd
       -0.6539408 -0.16759893 -0.09363625 -0.08202397
0000a0 e7 3e ec be da 3d 87 3e a0 eb 61 3e 73 91 e1 3d
       -0.4614174 0.26414376 0.2206254 0.1101407
0000b0 9c 0c 93 3d cf ef 97 bd fc ae 77 3e 01 af cd be
       0.071801394 -0.07418787 0.24187845 -0.4017258
0000c0 66 4a f1 be 4f ac 93 3d 4d ce ce 3d f2 40 6d bd
       -0.47127074 0.072106 0.100979425 -0.057923265
0000d0 55 e6 ee be 91 0c 17 3e 45 26 58 bd b5 fe 6a be
       -0.46660104 0.14750887 -0.05277087 -0.22948726
0000e0 22 93 24 be 49 08 fb 3d 73 10 93 3e ac b7 55 bd
       -0.16071752 0.1225744 0.28723487 -0.052177116
0000f0 2f d0 81 be 9c 0c 41 be 33 f8 ce 3d e4 a5 01 3d
       -0.25354144 -0.18852466 0.10105934 0.031652346
000100 b7 e7 a5 be b5 20 47 be c1 0b 02 3e 71 00 5c be
       -0.32403347 -0.1944607 0.12699796 -0.21484543
000110 de 95 ba be fc 4c 11 3e 73 ab fe bd 94 c1 03 3d
       -0.36442465 0.14189523 -0.12435045 0.032167032
000120 a0 2c bf be fc 11 9c 3c 24 ef 59 3d 23 59 79 3d
       -0.37338734 0.019051544 0.053206578 0.060876023
000130 06 59 c5 be a9 d3 4f be 17 42 05 3f 91 d6 a0 3d
       -0.38544482 -0.20295586 0.5205397 0.07853425
000140 3e a4 a9 be 3b 5a 89 be 8a e6 0a 3e 0c 9c 52 bd
       -0.3313312 -0.26826653 0.13564506 -0.05141835
000150 2a c1 ba be 21 86 4f 3e 11 04 94 3d 58 b3 f6 3d
       -0.36475497 0.2026601 0.07227338 0.12045926
000160 73 7c 71 3d f8 bd ed bd 25 6f 3c 3e dc 4b a8 3d
       0.058956575 -0.11608499 0.18401773 0.08217594
000170 b4 83 fb 3d 80 bf 8f 3d 42 5c 31 be 5e 86 12 bc
       0.1228098 0.070189476 -0.1732035 -0.008943168
000180 fb 88 1d be 88 68 1e 3d 34 db c8 bb 05 0b 77 be
       -0.15384285 0.038673908 -0.0061296467 -0.24125297
000190 bc 1a 3f 3e b2 09 8f be a4 20 36 3d 6f a5 96 bd
       0.18662542 -0.27937084 0.044464722 -0.07355773
0001a0 aa ca 19 3e e7 dd a5 3e bf 0a 35 3e 91 4e b3 3d
       0.15018716 0.3239586 0.1767988 0.0875522
0001b0 a1 08 0e 3e 8b 1c 87 3e 45 0f 0b bf 62 e2 0b 3e
       0.13870479 0.26388964 -0.54320174 0.13660577
0001c0 63 11 e8 be f4 58 6c 3c 52 6c 8b be 12 56 18 bd
       -0.45325765 0.014425505 -0.2723108 -0.037191458
0001d0 9d 77 eb 3d 81 29 19 3d e6 c3 30 3d e9 09 d0 be
       0.11497424 0.037393097 0.043155573 -0.4063256
0001e0 9b 4e a2 3e 17 17 1e 3e 3b 10 db bd fa 1e 21 bc
       0.31700596 0.15438496 -0.10696455 -0.009834046
0001f0 d8 67 91 bb 4a 07 2c be 33 66 84 be a0 23 a2 3d
       -0.004437428 -0.16799656 -0.25859222 0.07916951
000200 f8 cc c5 3e fe 14 aa 3d 6b 77 84 be 47 a7 ae 3e
       0.3863294 0.08304785 -0.2587236 0.34111997
000210 03 bd 09 3e 83 5b 6b 3e b5 78 04 3e a5 45 15 3c
       0.13451008 0.22984128 0.12936671 0.009110843
000220 a2 94 93 3e 07 e0 ba 3e 1b ef d4 bd 2a 1f e6 bd
       0.28824335 0.36499044 -0.10397168 -0.11236413
000230 89 f3 ce bd 07 5f b6 3c aa 41 aa 3d cb 10 c9 be
       -0.101050444 0.02226211 0.08313306 -0.39270625
000240 b8 4c 60 3e 16 59 c3 bc 39 56 b5 3d b1 e0 f8 bd
       0.21904266 -0.02384619 0.08854336 -0.121522315
000250 d3 9a 1a 3e 3f 2d 45 3e a6 95 07 ba ee 11 d0 bd
       0.15098123 0.19255541 -0.00051721407 -0.1015967
000260 77 53 1c bf 0b 67 8b 3e e5 9c 61 3e c2 d6 26 bd
       -0.6106486 0.27227053 0.22032507 -0.040732153
000270 c6 45 35 3e 32 bd a1 bb b8 0a 63 3d 11 45 39 be
       0.17702398 -0.004935884 0.055430144 -0.18092753
000280 a2 bb f3 bd d4 ef bd 3d 7b e4 1c 3d 71 b2 57 be
       -0.119010225 0.09274259 0.038303833 -0.21064164
000290 b1 2d 42 bf 05 e1 57 bd d0 46 9d be 07 55 98 3c
       -0.7585097 -0.05270483 -0.30718088 0.018595232
0002a0 11 00 e6 bd 9d ec b6 be 8c b9 b2 be 7e 92 4a be
       -0.112304814 -0.35727397 -0.34907186 -0.19782445
0002b0 d9 63 11 be db f0 03 3c 51 a8 2a 3e ac 8c 9e 3e
       -0.14198245 0.00805303 0.1666577 0.309667
0002c0 bb 61 1f 3e bb 42 6b be be e3 ce bb ea 87 49 bd
       0.15564625 -0.22974674 -0.00631377 -0.049201883
0002d0 30 f9 79 3d d7 d1 8a 3d ed ca 5d bd cd 66 82 3e
       0.06102866 0.06778305 -0.054148603 0.25469056
0002e0 b4 1f 71 3e b9 0a d0 be d9 f1 d7 3c 10 af c8 3b
       0.2354725 -0.4063318 0.02636044 0.0061243847
0002f0 22 41 a4 3d 75 36 0f 3e f6 ed e0 3d 35 79 6d be
       0.080202356 0.13985617 0.109828874 -0.23190768
000300 93 c2 91 be 87 e8 13 be d2 49 d6 bb f9 ae 64 be
       -0.2846876 -0.14444171 -0.006539562 -0.22332372
000310 fd 7a 04 3f 8d c4 ad bd 91 eb bf 3d ae f9 88 3d
       0.51750165 -0.08484755 0.093711026 0.066882476
000320 5d ee 17 3d e5 72 f6 be 1e 51 f7 3d f8 3a a6 3d
       0.037092555 -0.48134533 0.12076019 0.08116716
000330 5e 3f 08 3e 73 88 b8 3c 4d 5c 30 bf 56 71 7d bd
       0.13305423 0.022526002 -0.6889084 -0.061875664
000340 61 fe 23 bd ca 7c 12 3e f6 7a cf bd 5c 89 fc bc
       -0.040037517 0.14305416 -0.10130875 -0.030827217
000350 97 16 6a 3d 63 62 0d bf 69 b6 13 be ad 95 d3 be
       0.05715045 -0.5522825 -0.14425053 -0.4132513
000360 2f ce eb 3d 98 87 6f bd f2 46 e3 be cb 59 a0 bc
       0.11513936 -0.05847892 -0.44390064 -0.019574067
000370 7a ac 49 3d e5 97 f7 39 be 2f 2e 3d 1d 0c 0d 3e
       0.049236752 0.00047224681 0.042526 0.13774152
000380 2c da a5 3d 4c 96 0c be 31 d3 f2 bd df 5f ac 3e
       0.080982536 -0.13729209 -0.11856688 0.33666894
000390 c6 c9 8e 3e 39 e0 94 bd 06 ee 13 3e 71 a8 4a bc
       0.27888316 -0.072693296 0.14446267 -0.012369261
0003a0 2b ec 70 3e 79 91 0a bf 73 40 b1 bb 07 d2 01 be
       0.23527591 -0.54128224 -0.0054092943 -0.12677775
0003b0 40 8b b9 3d cf df 5c 3d 39 2d 0f bf ce de 6b be
       0.09059763 0.053924378 -0.5592838 -0.23034212
0003c0 df 8e 10 3e f5 fa 02 3e 00 c0 d0 3d 00 36 8c ba
       0.14117001 0.12791045 0.10192871 -0.0010697246
0003d0 4a 4a 8e 3e fa 67 8f be 98 cb 22 3c dd d9 2c 3d
       0.27791053 -0.28009015 0.009936236 0.042199958
0003e0 38 01 aa be 68 89 c7 be a8 5e dc be a2 61 60 3d
       -0.33204055 -0.3897202 -0.43040967 0.05478061
0003f0 b8 71 9b bd e3 0e 0f 3e 84 e6 7e 3b 1d ed 85 3d
       -0.075900495 0.13970523 0.0038894722 0.065393664
