mnist_trained/dense_biases.npy (npy, 640 bytes, 1 tensors)

array f4 [128]
-0.05963749 0.07653082 -0.056787245 -0.059038315 0.0067094658 -0.02602211 -0.0060044876 -0.005474805
-0.065106735 -0.026634257 0.0010076351 -0.030670606 -0.12166574 -0.10547615 -0.06748992 -0.0060032723
-0.027473267 -0.104333825 -0.006002026 -0.037711617 -0.012109858 -0.059854995 -0.08388392 0.071822084
-0.06123977 0.026113847 -0.012651378 0.04969698 -0.005699267 -0.039519794 -0.02760534 -0.016245129
-0.03826231 -0.06937835 -0.04319522 -0.018634409 -0.008493724 -0.016799044 -0.016334023 -0.019070314
-0.032971364 -0.0056767785 -0.0055549014 -0.072326176 -0.012909322 0.04219996 -0.031733565 0.026616134
0.03671162 -0.15152532 -0.030010998 -0.0863758 0.016554002 0.052904125 -0.0024838536 0.02563485
-0.05265645 -0.042539224 0.031742617 -0.0060039824 -0.009468335 -0.11495434 -0.049689315 0.029031565
-0.022875495 0.032473445 -0.0059654745 -0.022977259 -0.061274376 -0.118441924 0.086530596 -0.04684781
-0.07727421 0.09501116 -0.06482472 0.024316486 -0.018843465 -0.10549666 0.16322502 -0.17784257
0.002560908 -0.01585228 -0.0060050385 -0.021801896 -0.022005089 -0.07199789 0.04557994 -0.09771315
0.029657392 0.08032166 -0.12218517 -0.10623377 -0.017072888 0.005353418 0.1610732 0.087315165
-0.020123707 -0.0061971084 -0.006003924 -0.03215105 0.12078187 0.0038944383 -0.14333348 -0.0057881684
-0.011889585 -0.036390636 0.117490835 0.013676782 0.05378531 -0.06809215 -0.09779863 -0.03848293
-0.006004715 0.042739905 -0.08251861 0.075216316 0.03762555 0.009746701 0.13376196 -0.08640475
0.09885778 0.13187537 -0.006004677 0.002628852 -0.036034044 0.14363553 -0.008027329 -0.017535038
00000000: 7146 74bd 31bc 9c3d be99 68bd 29d2 71bd
00000010: 14db db3b 522c d5bc 4bc1 c4bb fe65 b3bb
00000020: ae56 85bd 1630 dabc a012 843a ec40 fbbc
00000030: e32b f9bd e103 d8bd 2838 8abd 19b7 c4bb
00000040: 9e0f e1bc f9ac d5bd a5ac c4bb 7f77 1abd
00000050: 6d68 46bc 832a 75bd 55cb abbd 7517 933d
00000060: 8ed6 7abd b5ec d53c ba47 4fbc 0f8f 4b3d
00000070: ebc0 babb 82df 21bd 9824 e2bc 8114 85bc
00000080: f1b8 1cbd 3d16 8ebd 79ed 30bd 30a7 98bc
00000090: 4329 0bbc 269e 89bc eece 85bc 5939 9cbc
000000a0: fb0c 07bd 4504 babb e405 b6bb bf1f 94bd
000000b0: 9f81 53bc ded9 2c3d 0efb 01bd 140a da3c
000000c0: ec5e 163d 7429 1bbe a0d9 f5bc cce5 b0bd
000000d0: 429c 873c ffb1 583d 26c8 22bb 2d00 d23c
000000e0: 4aae 57bd 9c3d 2ebd 8c04 023d 0ebd c4bb
000000f0: 1321 1bbc 2e6d ebbd 0687 4bbd 9bd3 ed3c
00000100: 6465 bbbc e002 053d 077a c3bb ce3a bcbc
00000110: d7fa 7abd ae91 f2bd f436 b13d 7de3 3fbd
00000120: f141 9ebd 3695 c23d d3c2 84bd 5e33 c73c
00000130: 9c5d 9abc a20e d8bd 7624 273e 5d1c 36be
00000140: e8d4 273b a4dc 81bc eac5 c4bb e499 b2bc
00000150: 0444 b4bc a173 93bd 08b2 3a3d d51d c8bd
00000160: 0ff4 f23c af7f a43d 383c fabd 1791 d9bd
00000170: 71dc 8bbc ba6b af3b 5ff0 243e 4bd2 b23d
00000180: 79da a4bc 1d11 cbbb 91bc c4bb d2b0 03bd
00000190: 7c5c f73d d539 7f3b 03c6 12be adaa bdbb
000001a0: 89cc 42bc 590e 15bd 099f f03d 9514 603c
000001b0: fc4d 5c3d e673 8bbd a64a c8bd 47a0 1dbd
000001c0: 33c3 c4bb 0a10 2f3d 84ff a8bd 030b 9a3d
000001d0: 401d 1a3d a1b0 1f3c e5f8 083e f9f4 b0bd
000001e0: f375 ca3d 560a 073e e2c2 c4bb d148 2c3b
000001f0: 6f98 13bd 3115 133e 0f85 03bc a4a5 8fbc
