mnist_trained/dense_1_weights.npy (npy, 5248 bytes, 1 tensors)

array f4 [128, 10]
00000000: 4ce5 a2bd b285 92be 38cf d0bd 506c 5abe
00000010: 9272 29bd 6814 673e fc01 7f3e 5a81 1f3e
00000020: 6c4c ee3d 3c30 2b3e 2500 753e 3e47 233e
00000030: b806 24bf 7c22 3bbe c26e 73be 3d5f fe3e
00000040: 2ea7 1f3e c20d d2bd 8d35 27be 4ba5 883e
00000050: c913 f1bd 87b0 a0bb dd11 e4bd c8f9 9e3c
00000060: af94 743e 9ebe d2bd 5fbb 3fbe 90c1 8f3d
00000070: 64db 83be b36c 09bc e07c 36bd 68ea 84be
00000080: 9316 37be 6518 883e a823 0f3e 99c9 a1bd
00000090: 812f e6be f6cb 45bc e7b6 41bd 296c 393e
000000a0: fdec a0bc 0825 433e e173 8fbe dcd7 c3bc
000000b0: 4f5d 803e 62c4 81be da33 b3be f479 11be
000000c0: 017e 623e f32a 723e 5dca 853e 9369 91be
000000d0: 24e3 343e 6cfd 903e 4a34 33be c762 343e
000000e0: 2b63 233d a49a f7bd 0877 85be 6bc4 75be
000000f0: c273 a5bd 0523 ccbd 7786 b23d deee 2b3e
00000100: 400c d73d 5556 7ebd 2779 3abe 2f1d 3e3e
00000110: 1589 51b9 db3d dfbd 5afa babe 70c7 6a3e
00000120: 606d 14bf fb3e 653e b1f2 373d a0c0 953e
00000130: 762a d23d 649c 58be 49a8 8ebe f29d 293e
00000140: f9d3 72bd 2434 8cbe 3328 bebe 9549 00bf
00000150: 49ed 80be 4d15 95bd bf27 473e fbd3 abbe
00000160: b8cc 14be f20c b83e 2061 25bf fc7d 2ebe
00000170: 7b27 503e cc4a 1f3e 0525 acbe 6910 333e
00000180: 3831 093e 6f8b d13d 1587 373e 0ad4 acbe
00000190: fafa 08be c523 033e d710 013e 5829 53be
000001a0: dd99 bc3d 5c0e 92be cd76 cbbd 4da2 3fbe
000001b0: fa5d b53d 2c4d d23d d163 c0bd 3860 6ebe
000001c0: 1c64 953c 2405 183e 7a7a 703d f413 463e
000001d0: 5af1 82be ac03 833c 5d8f 2fbd 707a a4be
000001e0: 67d7 5e3e 6f2f 9abe 66ab 723c 166b 25be
000001f0: 0706 e9be 4e24 26be db58 47be 66ec 8dbe
00000200: 078d ac3d c1a4 67bc 7862 063e 1a78 8fbe
00000210: 33ac b03c 9644 f5bb e5d3 83be f5bb 0e3e
00000220: fe70 423c 1fee a03d c094 173e 8362 80bd
00000230: e915 69be dce9 c1be e469 323e bf20 413d
00000240: 5bbf ed3d 488e 9d3d 3447 5c3e cc67 ebbe
00000250: 49fe 74bd e465 2c3e eb0c 1c3d a21a 0f3d
00000260: 3eb0 08be 0113 58be 83dc a93d 65ff 9a3d
00000270: 1fab 23be b31c c43d 1d77 dbbc 9965 cdbd
00000280: 64cf 22be 0ef7 7a3d e4e1 0d3e b841 d9be
00000290: 6713 8c3e 636e 923e ff2a 18be df8a cb3d
000002a0: a081 a03d 0817 96be 3025 723d c46a 8dbd
000002b0: da26 653e 347a 5abd 6622 58be 68f7 ebbe
000002c0: 3d5c d8be 881a 71bd b69b 413e d728 193e
000002d0: e6c6 1dbe 5ed1 acbd 6b12 18be b793 c8bc
000002e0: 4890 ba3d f4db 14be 86e4 073d 2737 b9bd
000002f0: dd81 3f3e 05f9 7bbd 6dda 593e 25bd 343d
00000300: 8d67 95be 964d 873e 1508 84bd 82bf 0ebe
00000310: 1569 97be e5bc 99be 8e69 33bd 8fa7 e73c
00000320: ea06 2e3e 6232 1c3e 77bb c3be 452d 643c
00000330: 1d8c d2be 993a 273e 1440 c1bd 7932 f33d
00000340: d4f6 153e 1b91 c43d 3408 83be 6410 603d
00000350: 6c93 8cbe 7d43 28bd 4af3 54be 9379 4e3e
00000360: a382 183e bc0f 213e cefc 8ebd ac0f bf3d
00000370: e242 e0bc 6c17 9f3d 5c28 073e 2d3d 2e3e
00000380: 384c acbd 6891 1f3e 9489 74be 9dd7 a43d
00000390: d3b5 c23d d616 203e d3e3 c73d 2f5f bd3e
000003a0: 9e1c babe 6062 85be 6a26 533e edfc adbe
000003b0: 2047 ab3e 5dac 50be 831b 05be 5b51 983e
000003c0: b87d d5be 2d38 c8bd e61b 70bd d0e6 8cbe
000003d0: fcbd febd fbbf b3bc 78ce 653e 947e 95be
000003e0: d761 8e3e 8aa5 adbe f442 1abf 0aa9 263d
000003f0: 6b2d 6f3e ed56 de3d 51d3 60be aa46 243e
-0.07953891 -0.28617626 -0.10195774 -0.2133038 -0.04136903 0.22566378 0.249031 0.15576687
0.1163567 0.16717619 0.23925836 0.15945145 -0.6407275 -0.18274873 -0.2377272 0.49682036
0.15591118 -0.1025653 -0.16329022 0.2668861 -0.11771352 -0.004903856 -0.1113622 0.019406214
0.23884843 -0.102902636 -0.1872382 0.07019341 -0.2575332 -0.008387732 -0.044552684 -0.25960088
-0.17879705 0.26581112 0.13978446 -0.0789978 -0.44958118 -0.012072554 -0.04729357 0.18107666
-0.019644255 0.19057095 -0.28018096 -0.02390664 0.2507119 -0.2534514 -0.35000497 -0.14206678
0.22118379 0.23649196 0.26130953 -0.2840086 0.17664772 0.28318346 -0.17500415 0.17615806
0.039889496 -0.12090042 -0.26067376 -0.24000709 -0.0807872 -0.09967617 0.087170534 0.1679034
0.105003834 -0.06209405 -0.18210278 0.1856582 -0.0001998286 -0.1090047 -0.36519128 0.22927642
-0.57979393 0.22387306 0.044909183 0.29248524 0.10262005 -0.21153408 -0.27862766 0.16564158
-0.059284184 -0.2738353 -0.37140045 -0.5011228 -0.25181034 -0.072794534 0.19448756 -0.33560166
-0.14531219 0.35947376 -0.64601326 -0.17040247 0.2032756 0.15555876 -0.33621994 0.17486729
0.13397682 0.10231673 0.17922623 -0.33755523 -0.1337699 0.12806614 0.1260408 -0.2062124
0.092090346 -0.2852658 -0.09934769 -0.18714257 0.08855815 0.102686256 -0.093940385 -0.23278892
0.018236212 0.14845711 0.058710553 0.19343549 -0.25574762 0.015992962 -0.04286133 -0.32124662
0.21761857 -0.30114314 0.014811372 -0.16154131 -0.4551241 -0.16224787 -0.1946749 -0.2771942
0.08425336 -0.0141384015 0.131235 -0.28021318 0.021566486 -0.0074849827 -0.257476 0.13938887
0.01186776 0.07857918 0.14802837 -0.062687896 -0.22762264 -0.37873733 0.17423207 0.04715037
0.11608764 0.076931536 0.21511537 -0.45977628 -0.059812818 0.16835743 0.038098257 0.03493751
-0.13348481 -0.21101 0.082940124 0.07568244 -0.15983246 0.095757864 -0.026790196 -0.10029144
-0.15899426 0.061270766 0.13855702 -0.42432952 0.27358553 0.28599843 -0.14860152 0.09938597
0.07837224 -0.29314446 0.059117496 -0.069051296 0.22378102 -0.0533392 -0.21106872 -0.46087193
-0.42257872 -0.058863193 0.18907055 0.14956985 -0.15407905 -0.08438371 -0.14850776 -0.024484498
0.09109551 -0.1453703 0.03317692 -0.090437226 0.18701883 -0.06151678 0.21274729 0.044125695
-0.29180565 0.2642638 -0.06446854 -0.13940242 -0.2957236 -0.30026928 -0.043801837 0.02827814
0.16994825 0.15253595 -0.38228962 0.013926809 -0.41122523 0.16330947 -0.0943605 0.11874861
0.14644939 0.09597989 -0.25592196 0.05470313 -0.27456224 -0.041079987 -0.20795932 0.20163564
0.14893584 0.15728658 -0.069818124 0.09329161 -0.027375642 0.07768139 0.1319899 0.17015524
-0.08412975 0.15582812 -0.23880607 0.080489375 0.095073365 0.15633711 0.09760251 0.36986682
-0.36349958 -0.26051617 0.20620123 -0.3398203 0.33452702 -0.20378251 -0.12998776 0.2974957
-0.41697478 -0.0977634 -0.058620356 -0.27519846 -0.124385804 -0.02194213 0.22442043 -0.29198134
0.2780902 -0.3391536 -0.6025841 0.040688552 0.2335717 0.108564235 -0.21955611 0.16042581
